saved_model/model.pt (torch, 170459 bytes, 12 tensors)

lstm_layer.weight_ih_l0 f4 [200, 39]
000000 42 92 9c 3c 71 34 49 bd a0 a3 1b bb 32 97 d1 bd
       0.01911271 -0.049122278 -0.002374865 -0.10233916
000010 fe 88 4c 3c b8 69 80 bd 03 61 31 bd 6c 5d 88 bd
       0.012483833 -0.06270164 -0.04330541 -0.06658444
000020 ed 01 5d be cd 85 2e 3d 63 2f 64 3e 16 87 85 bd
       -0.21582766 0.04260807 0.22283702 -0.06519906
000030 f4 35 01 bd 62 fb 6c bd a1 39 1c bd 5f 56 bc bd
       -0.031545594 -0.057856925 -0.038140897 -0.091961615
000040 03 7d 3c 3e 68 e0 e1 3d 0e 55 20 be 31 f5 89 3d
       0.18407063 0.1102913 -0.15657446 0.0673622
000050 6d 38 b7 bc bf 56 9b bd 80 95 db 3d ab c4 1e 3e
       -0.022365773 -0.07584905 0.10721874 0.1550471
000060 7a d3 e9 3c be fd 7d 3e 21 7b bf 3d 47 b0 10 3d
       0.028543223 0.24803826 0.09349657 0.03532436
000070 c2 0c 00 be 68 ba 1b bd 69 4f 83 3c f5 2c a1 3e
       -0.12504867 -0.038019568 0.016029077 0.31479612
000080 dd 51 ea 3d 40 f9 b5 3d db 5e 19 3e 0b dd 9b bd
       0.114413954 0.08885431 0.1497759 -0.0761052
000090 bf 13 f9 3d 9a 00 19 be 25 f5 5c 3d 10 aa d3 3d
       0.121619694 -0.14941636 0.053944726 0.10335171
0000a0 d9 01 13 bd 3c cb 44 3e 9e 7a fe 3c aa e3 6f 3e
       -0.035890434 0.19218153 0.031064328 0.2342669
0000b0 9f a9 92 bd 51 b9 e4 bd 27 d6 0e bc 19 c1 6c bd
       -0.07161259 -0.11168159 -0.00871805 -0.05780134
0000c0 6d 7f 56 3d ea 22 30 3e 7f a4 94 be b7 49 94 3d
       0.052367616 0.17200819 -0.2903175 0.072406225
0000d0 03 dc f8 bd 54 55 32 be 1c 8e 2e 3e 6a 34 14 bd
       -0.12151339 -0.17415363 0.17046398 -0.0361828
0000e0 2a b5 1c be 22 0e a5 3d ee bb 16 3d 87 51 47 be
       -0.15303484 0.08059336 0.036800317 -0.19464694
0000f0 e6 93 80 bd 56 91 a1 3d fa 5d 10 be 00 63 aa bc
       -0.062782094 0.07889049 -0.14098349 -0.02079916
000100 3f 7c 13 ba 4a f9 01 be 7b ee 93 3d 46 8f db bd
       -0.0005626119 -0.12692752 0.07223221 -0.107206866
000110 c6 59 29 3d 66 cf 0a be 27 e1 40 bd f3 2a 44 be
       0.04134538 -0.13555679 -0.047089722 -0.19157009
000120 bc a7 e9 bd 51 bb e9 3d 91 c8 a6 bd a5 6e de bd
       -0.11408946 0.11412681 -0.08143724 -0.108609475
000130 63 98 03 be d7 74 a7 3d 89 9a e1 3c be 9d 05 bd
       -0.128511 0.08176582 0.027539508 -0.032621138
000140 4d d7 83 3d cb 50 2a 3e 57 7c 53 bd 9a 87 50 be
       0.0643755 0.16632383 -0.05163225 -0.20364228
000150 ec 4f ef 3d 84 14 4d 3e cd a9 3e 3c a0 7d 25 3e
       0.11685166 0.20027357 0.011637163 0.16161203
000160 b2 43 1a 3e 7e 0a bf 3d 97 bd 26 be 5b 93 93 3d
       0.15064886 0.09328173 -0.1628326 0.0720584
000170 51 c3 a1 3d 3a df 92 be bf 33 04 3d 54 e9 ce 3c
       0.07898582 -0.28685933 0.03227591 0.025257744
000180 1c 0c 4e be 4e 47 95 bc b2 60 de bd b7 1d 97 bd
       -0.20121807 -0.018222477 -0.10858287 -0.073787145
000190 64 48 30 3d d6 2c 05 be c3 70 0b be bc 3d 29 3d
       0.043037787 -0.13005385 -0.13617234 0.04131864
0001a0 03 74 a6 bd 0a 23 8a 3d 42 f5 9e bd 9a 80 44 3e
       -0.08127596 0.067449644 -0.07761623 0.19189683
0001b0 80 bc 7c bd 93 b4 c3 3c c1 b9 9f 3e 60 22 4f 3e
       -0.061703205 0.023889815 0.31196406 0.20227957
0001c0 b3 a9 aa 3b 37 43 5d 3c 75 88 11 3c 5d 5d 8e 3d
       0.005208218 0.013504795 0.008882632 0.069514014
0001d0 ef 3e 9e 3d 30 a3 91 3d c8 f0 fb 3d a5 88 79 bc
       0.077268474 0.07111204 0.12301785 -0.0152303325
0001e0 06 43 d7 bd e3 df 5b be b7 97 1f be 47 40 f3 bc
       -0.105108306 -0.21472125 -0.15585218 -0.029693736
0001f0 19 9e 8d 3d d7 10 d0 3d bc 0f df bb 8a 29 3f 3e
       0.0691492 0.10159462 -0.0068072956 0.1866819
000200 bb 74 f7 3d 87 29 2a be 9c dd c5 bd f9 61 23 be
       0.120828114 -0.16617404 -0.09661409 -0.15955342
000210 82 2a 40 3e cc dd 5a bd 2e 05 83 be b9 fc 14 be
       0.18766215 -0.05343418 -0.2558989 -0.14549531
000220 58 67 2d 3c 8c 73 18 3b b8 60 2a be 66 00 95 3d
       0.010583721 0.002326223 -0.16638458 0.072754666
000230 92 b4 81 3e 1b 20 0f be 01 8e ac bd 04 bf 7a 3d
       0.25333077 -0.13977091 -0.084255226 0.061217323
000240 92 fc 89 bd ec 9e 3f be 6e fa 85 bd 30 30 3d 3d
       -0.06737627 -0.18712968 -0.06541906 0.046188533
000250 c2 23 a7 3c 27 d0 12 3e 02 4d f6 bd cc a8 1f be
       0.020402793 0.14337216 -0.12026407 -0.15591735
000260 3c 20 16 be 53 cd fc bd 52 95 b3 3d a9 78 9a be
       -0.14660734 -0.1234385 0.08768715 -0.3017018
000270 cf 83 06 bc 06 24 3b bd 25 05 7d ba cc 5b 92 36
       -0.008210137 -0.04568865 -0.00096519507 4.3618256e-06
000280 60 44 07 3d 14 e3 a0 3d 67 d5 80 be 0d 9c 6d 3c
       0.03302419 0.07855812 -0.25162813 0.014502537
000290 c1 d5 a0 bd aa 65 5b 3d e9 02 84 3e 55 8b 1b be
       -0.0785327 0.05356375 0.2578347 -0.1518987
0002a0 70 d8 e3 bc 62 2c 46 3d 2d 41 12 bd b2 69 84 bc
       -0.027813166 0.04838217 -0.035706688 -0.01616368
0002b0 77 9d 8d bd 70 9c 63 3d 8e fe 05 3e 4a f8 28 3e
       -0.069148 0.055569112 0.13085386 0.16500965
0002c0 9f 4d 87 be 34 fa 87 be e0 2b db 3d 99 1a 58 be
       -0.26426408 -0.26558077 0.10701728 -0.21103896
0002d0 cf ba 56 bc 38 bc fa bc 6e 3a 2a be 8a d3 24 bd
       -0.013106062 -0.030607328 -0.16623852 -0.040240802
0002e0 cd 05 28 3d 91 9f 9a bd 61 91 c7 3d f1 f2 05 3d
       0.041021157 -0.07549966 0.09744526 0.03270239
0002f0 83 8a b1 3b ba 26 bd bd 56 7c e8 3d 1b 9d 48 bd
       0.005418123 -0.09235902 0.1135184 -0.048977952
000300 b3 a5 ad bb e2 84 40 bc 0f d4 f0 bc c1 ca 7e bd
       -0.005299294 -0.011750432 -0.029397992 -0.06220508
000310 ff 76 31 be 2d 0b 68 3d 32 b2 6b bd 67 41 ad 3d
       -0.1733055 0.056651283 -0.057542987 0.0845974
000320 e1 24 04 3e f0 dd 16 be 23 34 60 3d b8 1c 04 3e
       0.12904693 -0.147331 0.05473722 0.1290158
000330 08 12 29 bd 3f d0 ff 3d d5 aa 49 bd 45 c7 de bd
       -0.04127696 0.12490892 -0.049235184 -0.108778514
000340 47 a4 98 bd 4c fb 37 bd 0f d6 73 bd 5b 20 f2 bc
       -0.074532084 -0.04491739 -0.059530314 -0.029556444
000350 17 35 e0 3d 71 e6 c5 3d 9f 22 05 3d 51 24 d9 bc
       0.10947626 0.09663094 0.03250372 -0.026506575
000360 54 65 66 be f9 eb 68 bd 1a 7d 66 bc 18 9d 0c be
       -0.22499591 -0.056865666 -0.0140679125 -0.13731802
000370 f8 07 96 bd a0 de 23 3e 2a 6f 04 3e e5 b7 18 be
       -0.07325739 0.16002893 0.1293303 -0.149139
000380 77 d7 14 3e 1b 79 01 bd e7 a8 1b be 47 0f 4d be
       0.14535318 -0.031609636 -0.1520115 -0.20025359
000390 99 bd 9a bd 6e eb 9a bd d8 cd 0f 3d 42 8d e8 3b
       -0.07555694 -0.07564436 0.035108417 0.0070969174
0003a0 13 17 b0 3d 30 f6 39 bd de ed ed 3d 90 97 53 be
       0.08598151 -0.0454008 0.11617635 -0.20663285
0003b0 14 bd 3b bd 5e 12 64 3d 49 68 80 3d 45 26 dc bc
       -0.045834616 0.05568158 0.06269891 -0.026873717
0003c0 6b 54 c9 3d 62 cf c5 bd 15 f4 d2 3c 04 f1 8c 3c
       0.098305546 -0.09658696 0.025751153 0.017204769
0003d0 18 45 1b bd 5a 42 9c 3e 25 44 b6 bd b4 ce c9 bd
       -0.03790769 0.30519372 -0.08899716 -0.098538786
0003e0 15 5d 8f bd dd 08 c6 3c 19 24 5a 3d 7e 63 6a be
       -0.07000176 0.024174148 0.05325708 -0.22889516
0003f0 b5 cd 25 be 67 55 21 3e 41 56 12 be 08 d4 72 3d
       -0.16191752 0.15755235 -0.14290716 0.05928424

lstm_layer.weight_hh_l0 f4 [200, 50]
000000 a0 45 84 bd bf ee 5f bd b0 1b 6f bc e6 82 eb bd
       -0.064585924 -0.054671045 -0.014594004 -0.11499576
000010 a4 b8 97 bd 3c 6b 2d bd 1a 14 78 bd f2 8e 5d bc
       -0.07408264 -0.042338595 -0.060566045 -0.01352285
000020 aa ff 61 3e c2 83 5a be a8 20 48 bd 8a 08 33 bd
       0.22070184 -0.21339324 -0.04885927 -0.043709315
000030 ef 48 a2 bd a3 02 38 3d cb 3d 20 3d 14 7f 36 3e
       -0.07924067 0.04492439 0.03912143 0.17821914
000040 82 53 13 3d db 3e a2 bd e8 24 d5 3d 57 24 a7 bc
       0.03596831 -0.07922145 0.1040743 -0.02040307
000050 b4 0a 98 3b 35 b8 8c bd 01 26 f4 bd d8 85 e2 3d
       0.004639948 -0.06871072 -0.11921311 0.11060685
000060 e6 b6 5f 3e a4 06 f9 3d ba 19 a3 3d 95 27 5e bd
       0.21847114 0.1215947 0.07963891 -0.054236967
000070 84 c4 9c bd 60 8c f9 bd 4b 56 b3 3c 07 04 86 3c
       -0.0765467 -0.121849775 0.021891734 0.016359342
000080 8e 59 24 be 22 2e 3c bd de e8 2b be fb 00 1e 3c
       -0.16049787 -0.045942433 -0.1678805 0.009643788
000090 76 21 61 3d 73 75 04 be 55 6e 04 3e 8e b4 04 bd
       0.05496355 -0.12935428 0.12932713 -0.032398753
0000a0 ed 11 17 3e 8e f0 44 bd cc 3e 17 be 6c 72 3c 3d
       0.14752932 -0.048080973 -0.14770049 0.04600756
0000b0 1b e4 28 3b 38 9f 8f 3e 9a f5 3d be 33 21 cd bc
       0.0025770727 0.28051162 -0.18550721 -0.025040245
0000c0 8d 37 05 3e 67 52 af 3d 89 8a 9d bd 49 65 26 3c
       0.13009472 0.08560639 -0.07692439 0.010155984
0000d0 b1 eb 91 3d aa 44 63 bd 0c c9 19 3d f2 00 27 3e
       0.07125033 -0.055485405 0.03754525 0.16308954
0000e0 a0 7d 05 3e 9c 80 aa 3d ac 7a 30 bd 59 4d 30 be
       0.13036203 0.083253115 -0.04308574 -0.17217006
0000f0 c2 67 a3 bc 47 c3 eb bd 50 d6 16 be 24 3e ee bd
       -0.019946937 -0.115118556 -0.14730191 -0.11632946
000100 06 ca 49 bd 86 b0 26 3e 51 00 12 be cf 5b ad be
       -0.04926493 0.16278276 -0.14257933 -0.33859107
000110 64 e9 19 3d 3f 97 02 be 24 5b 87 3d 34 cc 4b 3c
       0.037576094 -0.12753008 0.066091806 0.012438823
000120 3a 3a 8e 3c e7 e4 dc 3d c1 6f ba bd f6 e9 2c bb
       0.017361749 0.10785847 -0.091033466 -0.0026384569
000130 e6 10 df 3d 68 e1 d7 bd 05 c4 89 bb 82 6f 07 be
       0.10891895 -0.1054104 -0.0042042756 -0.1322613
000140 a0 c2 9e bd 08 8f 10 be 32 0a 8f bd 61 38 e7 bd
       -0.077519655 -0.14117062 -0.069843665 -0.1129005
000150 51 a9 19 be a3 cf 74 3d 14 65 07 be 93 b3 09 3e
       -0.15005995 0.05976833 -0.13222152 0.13447408
000160 75 8a 52 bd 21 c3 56 bd e4 93 fa bd 30 2b 8e 3d
       -0.051401574 -0.052432183 -0.12235239 0.06941831
000170 3b 4a 88 3d 23 64 9c 3d 60 6a de bd 62 c4 f1 bc
       0.06654783 0.07636287 -0.10860133 -0.029512588
000180 57 5a 8f 3d a7 17 86 3d 02 5b 19 3d 68 00 95 3d
       0.06999653 0.0654748 0.037440307 0.07275468
000190 ae c7 5c 3d d8 88 5e bc 4b 57 c9 bc 03 b3 1e be
       0.053901367 -0.013582431 -0.024577757 -0.15497975
0001a0 65 22 ce 3d 94 6d 3b 3e 31 97 75 3d eb 8e 03 be
       0.10065154 0.1830352 0.05995864 -0.12847488
0001b0 ea f4 7c 3d 57 7a 34 be d1 7b 02 be 04 7f 3c 3e
       0.061757006 -0.17624794 -0.12742545 0.18407828
0001c0 5d c5 17 be c4 d6 4b 3d 3b 8f 4c bd a9 12 b1 3d
       -0.14821382 0.049765363 -0.049941283 0.08646137
0001d0 6b 38 4d 3d b5 c6 dd bc a9 b3 cf 3c 0b e8 8b bd
       0.050102632 -0.02707229 0.025354223 -0.06831368
0001e0 6c 84 05 3e a5 3d f1 3d 45 89 89 bd 1f d4 3f be
       0.13038796 0.11779336 -0.06715635 -0.18733262
0001f0 5d 13 05 3e f2 6b c5 3d f1 c2 9f bd 35 15 3e be
       0.12995668 0.096397296 -0.07800854 -0.18562777
000200 f5 c0 17 3e 49 92 d6 bd 2a 57 ac 38 8e 28 07 be
       0.14819701 -0.104771204 8.217835e-05 -0.13199064
000210 1c 7f 65 bc 87 23 05 be c3 0b 10 3d bc 1d 23 bd
       -0.014007356 -0.13001834 0.035167467 -0.03982328
000220 c6 45 11 3e fb 2c 3f be 84 c7 06 bc b8 4e 45 3d
       0.14186773 -0.18669502 -0.008226279 0.048170775
000230 5d 53 3b 3c 92 b4 a4 3d 4a e8 be bd c6 10 09 3d
       0.01143345 0.080422536 -0.093216494 0.033463262
000240 f1 92 68 3d 93 0d 0b 3e fb f3 6c 3d bc 96 d7 bd
       0.05678076 0.13579397 0.057849865 -0.10526797
000250 52 dc 09 3e 52 5b 11 3e d5 8e 0f be f5 ec fb bd
       0.13462952 0.14194992 -0.1401933 -0.12301055
000260 47 66 c1 bd 96 5b d5 3d a4 12 30 3e a3 ad 18 bd
       -0.09443336 0.10417859 0.17194611 -0.037274968
000270 84 e2 73 bb 55 39 ce bd 3f 6c 8c 3d 9f da a2 bc
       -0.0037213871 -0.10069529 0.06856584 -0.019879637
000280 7a 3b 31 be 52 dc 22 3e 36 ad b2 bd 83 16 18 3d
       -0.17307845 0.15904358 -0.087244436 0.037130844
000290 06 cb 2b 3e ff b0 6f bd 6c 91 86 bd 9c 4d b5 3d
       0.16776666 -0.058518406 -0.06570706 0.088526934
0002a0 b6 34 73 be 2a 4c 82 be d8 4c 51 3e 9b 62 4a 3e
       -0.23750576 -0.25448734 0.2043947 0.19764178
0002b0 8b 8d 73 bd e5 32 82 be 4c 63 4b be dc 39 91 3e
       -0.059461158 -0.25429454 -0.19862098 0.28364456
0002c0 da 46 3e be 91 27 8f bd af 5a 28 3c 54 bf 29 3d
       -0.18581715 -0.069899686 0.010275527 0.04144223
0002d0 3b 62 90 bd e7 44 a1 bd 22 e2 8f bd ae 82 03 3d
       -0.07049986 -0.0787447 -0.07025553 0.032107048
0002e0 dc c9 7e 3c 26 53 08 3e 6e 12 11 3d ea 2e f2 3d
       0.015551057 0.13312969 0.035417967 0.118253544
0002f0 90 58 1d be d7 fd 9c 38 bb b3 7b bd 3a c1 68 3d
       -0.15365815 7.485941e-05 -0.0614507 0.0568249
000300 17 a7 42 3b e0 90 2a bd 07 4b 8d be 30 ca ec bd
       0.0029701644 -0.04164207 -0.27596304 -0.11562002
000310 80 3e 26 be 0c 38 0a be 01 46 3c be e5 c2 08 be
       -0.1623478 -0.13497943 -0.1838608 -0.13355596
000320 e4 cd 16 3e 26 0c ad 3c 02 eb c0 bc e6 3a 33 3b
       0.14726979 0.021123957 -0.02354956 0.0027348339
000330 e9 48 a3 bd e2 4b e0 bc be 5d a0 bd 4d bf 23 bb
       -0.07972891 -0.027379934 -0.0783038 -0.002498585
000340 5f 81 12 3e cc 9d 52 bd 3f 58 90 bc a5 bf 01 bd
       0.14307164 -0.051420018 -0.017620204 -0.031676907
000350 55 0f 7c 3e dd c9 76 3d 5d 2b 22 bc b1 0b c3 bd
       0.24615224 0.060251106 -0.009898034 -0.09523714
000360 cb 6c 61 bc 05 4c 33 3d b0 85 0f 3e 89 19 ea 3d
       -0.013758848 0.04377367 0.14015841 0.11430652
000370 85 bd 57 3e d6 35 a4 bd 1b b2 b7 bd c5 d2 03 3d
       0.2106839 -0.08018081 -0.08969518 0.032183427
000380 ad 89 86 3e e4 d2 32 bd 62 b5 4d bd 8a 4d ec 3d
       0.26276913 -0.043658152 -0.05022181 0.11538227
000390 79 fa 24 3e 11 6a 85 be fe 0b 14 be 52 fe 64 3c
       0.16111173 -0.26057485 -0.144577 0.01397665
0003a0 c7 8f f1 3c fe 9f 17 bd 18 24 08 be 7a 1b 94 3c
       0.029487504 -0.037017815 -0.13295019 0.018079508
0003b0 33 14 4b be 30 78 8d bd ff 49 36 bd dd ee 38 3d
       -0.19831924 -0.069076896 -0.044504162 0.045149673
0003c0 8d d9 99 bd 4f c2 e5 bd f2 2b fd 3c 78 09 72 3d
       -0.07512198 -0.11218702 0.030904744 0.05909106
0003d0 ae 8b 1c be 93 ce d5 3d 1d 86 62 3c c1 72 1b 3e
       -0.15287659 0.104397915 0.01382592 0.15180494
0003e0 b8 90 63 3d 30 7c e0 3c 73 3a c3 3d fd ed 1e bc
       0.055557936 0.027402967 0.09532633 -0.0097002955
0003f0 2b ce 05 bc 8d 8d e6 bd 6a 35 b6 3d e8 c7 63 bd
       -0.00816683 -0.112574674 0.08896907 -0.055610567

lstm_layer.bias_ih_l0 f4 [200]
000000 72 e2 9a bd b1 4d 55 3d 37 0c c1 bd f7 a1 87 bd
       -0.07562722 0.052076045 -0.09426158 -0.06622689
000010 5c bf 8f 3d 23 41 1e bb aa d5 c4 bd 91 57 e2 bd
       0.07018921 -0.0024147711 -0.09611066 -0.11051858
000020 e8 db 7e bd 0e 85 b3 3d 3e 74 2f 3e 3a 38 c9 3d
       -0.062221438 0.087656125 0.17134187 0.098251775
000030 b0 e3 e3 3d 96 42 94 3d 2d 9a 1f 3d 44 5a c1 3d
       0.11127412 0.07239263 0.038965393 0.09441045
000040 56 27 fb bd 88 0c a1 3c bc be 34 3e a8 f9 d2 bb
       -0.12263362 0.019659296 0.17650884 -0.0064384528
000050 23 42 28 bd a5 f0 43 3e ae 0f 9e 3c 6f 6c 10 3d
       -0.041078698 0.19134767 0.019294586 0.03525966
000060 e9 84 37 bd 58 04 f2 3d d7 50 58 3d 37 dd f6 bd
       -0.044804487 0.11817235 0.05281147 -0.12053912
000070 e2 5e 01 3c f2 8b cb 3c dc 24 dd bc 43 bd 05 be
       0.007896157 0.024847005 -0.026995115 -0.13060479
000080 8e 35 d4 3d ca 23 93 bd e2 09 6c 3d 79 c2 0e be
       0.10361777 -0.071845606 0.057626612 -0.13941373
000090 60 63 c8 3d 51 d9 dc bd eb 95 92 bd c2 fa 37 bd
       0.09784579 -0.10783637 -0.07157501 -0.044916876
0000a0 51 a7 e7 bb e5 8b 83 bc d3 76 89 bd 36 ba 71 ba
       -0.007069506 -0.016057918 -0.06712117 -0.0009221168
0000b0 80 bb 6e 3d 52 e2 0e 3e 7d 54 66 bd c0 a9 1a be
       0.058284283 0.13953522 -0.056232918 -0.15103817
0000c0 27 53 ff 3d 08 73 43 bd ce 9e 13 3e 11 e8 34 3e
       0.12467032 -0.047717124 0.14416048 0.17666651
0000d0 0b af bd 3d 43 36 2a 3d 4d 74 1f 3e c9 c6 f5 bd
       0.092619024 0.041555654 0.15571709 -0.12000806
0000e0 bb bf 07 3e 9e 1c 58 3e 0d 66 8b bd 64 9e fa bd
       0.13256733 0.21104667 -0.06806574 -0.12237242
0000f0 ac 22 43 3d 7b 04 d8 3d 8e 46 13 3d a1 8a 88 bd
       0.047640488 0.105477296 0.035955958 -0.06667066
000100 b0 53 88 bd d9 04 74 bc a9 1c 4e 3d a8 46 9e bd
       -0.06656587 -0.014893734 0.0503203 -0.0772832
000110 2c a1 24 3e fd e2 82 3d 3e bb f1 3d ad 87 66 3e
       0.16077107 0.06390951 0.11803292 0.22512694
000120 17 52 db bd 77 bb f4 3c 82 9c 81 bc a0 12 53 3d
       -0.10709017 0.029874546 -0.015821699 0.051531434
000130 9c 31 6f 3d 1e a2 45 bd f3 75 a5 bc ac c1 fa 3d
       0.05839692 -0.04825031 -0.020197844 0.12243971
000140 00 bc af bd f4 cd 52 bd 51 a4 42 3d 2e 33 46 3c
       -0.0858078 -0.051465943 0.047519986 0.012097163
000150 bc 40 7e bd b5 64 35 3b 44 ec 0f 3e 9a c6 a0 3d
       -0.062073454 0.0027678434 0.14054972 0.0785038
000160 62 9a ef bd 01 93 74 3b 8f 07 a3 3d 38 63 9e bd
       -0.11699368 0.0037319066 0.07960426 -0.07733768
000170 98 04 42 bd 62 0c 4f 3e e1 18 a7 3d 29 b4 e0 bc
       -0.047367662 0.20219567 0.08159042 -0.027429657
000180 90 52 2e 3e 82 74 07 3c c2 98 8e 3d 1e f3 23 3e
       0.17023683 0.008267524 0.0696273 0.1601071
000190 b0 4e ea bd e9 98 ad bc 39 fd 74 3d 89 5f b0 3d
       -0.1144079 -0.021191077 0.059811804 0.08611972
0001a0 8b a7 ba 3c 25 04 a6 3c 2f 9c 26 3d c8 55 18 bd
       0.022784969 0.020265648 0.040676292 -0.037191182
0001b0 98 5d 1d 3e 26 23 cc bc cc 16 c8 bd e5 01 eb bd
       0.15367734 -0.024919104 -0.09769973 -0.11474971
0001c0 a8 e9 e0 3d 6a 2c c0 bd 3e 52 4b bd 55 51 87 bd
       0.109820664 -0.09383471 -0.04963898 -0.0660731
0001d0 c7 e5 09 bd 3f dd c3 3d 58 12 3f bd 62 95 6e 3d
       -0.0336664 0.09563684 -0.046648353 0.05824793
0001e0 d0 2e f9 bc c6 15 0b 3d e1 b5 f3 3d 33 10 d5 bd
       -0.03041783 0.03395631 0.11899925 -0.104034804
0001f0 e9 08 87 bc 0a 3a 8d 3d 5d 98 0b 3d e4 42 87 bd
       -0.01648374 0.06895836 0.03408085 -0.06604555
000200 34 d0 9d 3c 26 d0 42 bd 75 fb 56 bc e7 88 22 3e
       0.019264318 -0.047561787 -0.013121475 0.15872537
000210 5b 93 f8 bc ce 5d 45 bd 13 22 a8 bc f0 2f 07 bd
       -0.030343702 -0.048185162 -0.02052406 -0.0330047
000220 3a e3 c8 3b 14 70 5f 3d aa 88 54 bd 42 40 55 bd
       0.006130603 0.054550245 -0.051888146 -0.052063234
000230 cf 87 fd bd f5 6e 6b bd b5 67 79 bc 78 13 f5 3d
       -0.12379419 -0.057478864 -0.01522248 0.11966604
000240 f0 b3 be 3d 03 fa d2 3c 5f 76 f9 3b e7 a1 83 3d
       0.09311664 0.02575398 0.007612988 0.06427365
000250 3a f6 8e 3c 92 59 2e bd 30 0d 77 3e d5 79 34 3e
       0.017451394 -0.04256589 0.24126124 0.176246
000260 04 ab 26 3e df bc e1 3d 44 61 0d 3d 21 b8 e6 3b
       0.16276175 0.110223524 0.034516588 0.007040993
000270 77 98 0a 3e 94 e6 dc 3d 82 b3 ca 3d 77 62 e2 bd
       0.13534723 0.10786167 0.0989752 -0.11053937
000280 7e 6e 82 3d 6f 8d 7a bc 30 1b 3b bd 01 ce d8 3d
       0.06368731 -0.015292509 -0.045680225 0.10586167
000290 8b 5f 4a bc 63 2d 84 3b 42 ff 30 3e 8e b3 a7 3d
       -0.012351881 0.004033731 0.17284873 0.08188544
0002a0 f0 0f 0e 3d e6 21 e6 3c 85 57 df 3d 79 8e 5b bd
       0.034683168 0.028092336 0.10905365 -0.05360267
0002b0 05 63 94 bd 61 13 48 3c 3f 4c 20 3d 32 05 79 3e
       -0.07245449 0.012211652 0.039135214 0.24318388
0002c0 89 76 00 3e c3 63 1d bd 82 ee 38 bb 93 c3 30 3e
       0.12545218 -0.03842522 -0.0028218334 0.17262106
0002d0 ec d0 63 3d aa 5b b1 3d 26 0b cc 3d 50 83 43 3e
       0.055619165 0.08660062 0.09963064 0.1909306
0002e0 76 eb 0e bd a4 9d b3 bd 4b 19 6c 3d 8d 91 08 3c
       -0.03489252 -0.08770302 0.05764131 0.008335483
0002f0 35 46 fb bc c2 74 88 3c ad d8 4c 3e 36 61 18 3e
       -0.030673126 0.016657237 0.2000453 0.14880833
000300 a8 69 2b 3d e4 c7 84 3e 8a 1e 53 bc c3 04 e3 3d
       0.04184881 0.25933754 -0.012885699 0.110848926
000310 24 77 ac 3d 84 8c 28 bd 1c 90 4d 3d d0 d9 26 3e
       0.08421162 -0.04114963 0.05018626 0.16294026

lstm_layer.bias_hh_l0 f4 [200]
000000 31 ba b2 bd c4 50 25 be 10 27 eb bc fa 7b 8c 3d
       -0.087269194 -0.16144091 -0.02870515 0.06859584
000010 22 e7 e6 bb 0a 2d c5 bd 19 de b2 bc a3 81 b9 3d
       -0.007046596 -0.09627731 -0.02183442 0.09057929
000020 ce 32 db bc f2 11 0a bd 5c df 10 bd 26 be d7 3d
       -0.026757624 -0.03370852 -0.035369262 0.10534315
000030 17 eb f8 bd da 30 b3 3c e6 b2 43 3d 9f a8 be bc
       -0.12154215 0.02187388 0.047778033 -0.023273764
000040 ab 72 eb bd fd 46 3b 3e aa a2 aa 3d 4a 1a ae 3d
       -0.114964806 0.18288799 0.08331807 0.08501108
000050 35 12 c6 bd 29 74 4a bd 41 a2 ec 3d 07 55 af 3d
       -0.096714415 -0.049427185 0.11554385 0.085611396
000060 17 eb b5 3c 5d ae 82 bd 88 f4 a1 bd 71 12 cb bd
       0.022206826 -0.063809134 -0.07907969 -0.09915627
000070 58 33 93 bd 90 a4 13 3c 23 ad 9f 3d 1d d0 af 3c
       -0.071875274 0.009011403 0.07796695 0.02146154
000080 28 b5 20 3c dd 7f 32 3e ca 3c e8 3d f6 97 14 3d
       0.009808816 0.17431588 0.113397196 0.036277734
000090 78 c4 91 bc 63 a2 08 be f5 5f e6 3c b4 77 38 bd
       -0.017793879 -0.13343196 0.028121928 -0.045036033
0000a0 12 76 d3 3d e3 5b d9 3d 14 3c 02 3e 31 bb 65 3d
       0.103252545 0.10613229 0.1271823 0.056086723
0000b0 59 59 15 bc 9f 1b 03 bd 91 27 d2 bc 4d c2 24 3d
       -0.00911554 -0.032008763 -0.025653632 0.040224362
0000c0 d2 36 d7 bc 16 03 95 3d 45 6a 9b 3d 77 36 45 3d
       -0.026271258 0.07275979 0.07588629 0.048147645
0000d0 7f 56 69 3c c1 35 0b 3e 56 b7 57 3e dd bc ea bd
       0.014241814 0.13594724 0.21066031 -0.11461804
0000e0 6a ab 07 be 12 91 04 3d a4 86 3e ba c9 f7 01 be
       -0.13248983 0.032364912 -0.0007267988 -0.12692179
0000f0 87 04 3e bc 59 82 10 3e 18 a7 19 3e 53 34 92 bd
       -0.011597759 0.14112224 0.15005147 -0.07138886
000100 b1 1c 92 bd cb ea d0 bc 1e 46 08 3e 1c b0 e0 3c
       -0.07134379 -0.025502583 0.13307998 0.027427725
000110 42 79 2f bd 21 35 21 3d b4 b6 b5 3d 0d 57 54 3c
       -0.04284025 0.03935731 0.088727385 0.012960208
000120 a0 fe bf bd 40 c3 2a 3e db 93 fc 3d 45 48 1c 3e
       -0.09374738 0.16676044 0.12332889 0.15261944
000130 ff 5a 5b bc 36 fd 4a 3e 7a f5 35 3e 74 6c 5c 3e
       -0.013388394 0.19823155 0.17769423 0.21525747
000140 64 e4 e9 3d 70 0e 1a 3e 4e 66 46 bd 84 12 35 3e
       0.11420515 0.1504457 -0.04843741 0.17682844
000150 0d 63 8c bc cf 4c d5 3d 27 98 b2 bd 00 dd d1 bc
       -0.017137075 0.10415041 -0.08720427 -0.025618076
000160 4b 3f ea bd 25 6e d6 bc 01 07 d8 3c e5 0e 8d bd
       -0.114378534 -0.026175568 0.026370527 -0.068876065
000170 90 a7 42 3e 46 04 74 3e 2f 6c ef 3b 37 e8 88 3d
       0.19009233 0.23829755 0.0073065977 0.066849165
000180 0d f3 ab bc a4 98 45 3c 17 bf 24 3e 56 8a e0 bc
       -0.02098992 0.012060318 0.1608852 -0.027409714
000190 52 ef 3d 3c 04 c6 80 bc e2 58 b6 bd 79 41 09 3d
       0.011592703 -0.015719421 -0.08903672 0.033509705
0001a0 5c 27 fe 3d 3a 55 a2 3d a4 04 0b be 7e 2d 4b bb
       0.12409851 0.07926412 -0.13575989 -0.0031002457
0001b0 7b fb c7 3d 43 4d 20 bd f7 b1 0a be 23 3e 99 bd
       0.09764763 -0.039136183 -0.1354445 -0.07482555
0001c0 95 ef ef 3d 79 31 fc 3d ff e7 92 bd b8 c3 3a bd
       0.117156185 0.12314124 -0.07173156 -0.04559681
0001d0 bf e7 c0 3d a5 5c eb bc 7e 3b f7 bc 34 61 07 bd
       0.09419202 -0.0287307 -0.030179735 -0.033051684
0001e0 31 af e5 3d 25 e4 bd 3d 18 a6 93 3c ea ae e7 3d
       0.11215056 0.09272031 0.018023536 0.11312659
0001f0 99 4a f2 3c 49 b8 16 be ed 63 0d 3e 4b 55 be 3d
       0.029576587 -0.14718737 0.1380765 0.09293612
000200 3e 8f 8a 3d 2d 98 d9 bd f2 8d bb bd c7 55 6c bd
       0.067656025 -0.10624728 -0.09157933 -0.05769899
000210 7c f7 55 3d cd b4 a7 3d e5 d5 25 3e 81 ee f9 3d
       0.052237973 0.08188782 0.16194876 0.12203694
000220 2e 1b c0 bc e1 cf 0e be 22 f1 d3 bd 59 5f b1 bd
       -0.02345046 -0.13946487 -0.10348727 -0.08660764
000230 70 75 19 bd db d1 31 bd e4 d9 24 bc 40 b0 94 bc
       -0.037465513 -0.043413024 -0.010061715 -0.018150449
000240 a6 6b bb bd fc 0e 4d bc 88 34 de 3d fe 9e b4 3b
       -0.09151392 -0.01251578 0.10849863 0.0055121174
000250 a4 91 9d 3a fc 9c 71 bd c1 75 64 3e 2a f1 f2 3c
       0.0012021554 -0.058987603 0.22310545 0.029656012
000260 59 79 b5 3d 24 e1 8c 3e 1a ff 66 3e e7 32 c0 bd
       0.08861036 0.2751552 0.22558251 -0.09384709
000270 6f 6a 97 3c 3b b0 f6 3d 2f 31 2c 3e 04 47 ec bc
       0.018483369 0.12045332 0.16815637 -0.028842457
000280 32 57 bf bd ac 6e 31 3e 72 51 37 3d db 5b 6a 3c
       -0.09342803 0.17327374 0.044755407 0.014304127
000290 a2 17 09 be 38 79 e1 3d fd 51 38 3c 3b 5d 1a bd
       -0.13387921 0.11009449 0.011250016 -0.037686568
0002a0 08 a1 98 bd 26 13 46 3d 99 f5 25 3e 29 e1 51 3d
       -0.07452589 0.048358105 0.1620697 0.05124012
0002b0 c5 ba be 3d 04 aa ec 3c 0e da 0b bd 37 1f 96 bb
       0.09312967 0.028889664 -0.0341435 -0.004581358
0002c0 70 a4 2d 3e 17 15 08 bd f5 d0 b4 3c 77 17 f8 3d
       0.16957259 -0.033223238 0.022072295 0.121138506
0002d0 a0 29 2a 3e 67 17 da 3d 9f 59 05 3d 49 35 12 3e
       0.16617441 0.10648995 0.032556172 0.14278139
0002e0 6d 39 9c bb c9 eb c0 bd e7 b4 b5 3c 25 65 20 3e
       -0.004767588 -0.094199724 0.022180988 0.15663584
0002f0 0b ce c0 bd 70 ce 83 3d 8b 40 d2 3d ac 6d 65 3e
       -0.094142996 0.06435859 0.10266217 0.22405118
000300 27 06 33 3a fa a4 8c 3d ac 4d 4b 3e 54 6c 85 3d
       0.0006829225 0.06867404 0.19853848 0.065148026
000310 6d 00 9d 3d c0 34 81 3d ca d6 e8 bc 27 a3 8d 3e
       0.07666097 0.063088894 -0.028422732 0.27663538

lstm_layer.weight_ih_l0_reverse f4 [200, 39]
000000 be d3 89 bd 26 fa 1b 3d 2c 55 9d bd 75 d5 95 bc
       -0.0672984 0.038080357 -0.07682261 -0.01829026
000010 9d 59 cb 3d 00 ad e7 3d e0 39 a6 be e5 f6 5a b9
       0.09929202 0.11312294 -0.3246603 -0.00020882075
000020 58 fb ca bd 0a 50 ca bd 9d 6d 1c 3e 2d 16 a1 bd
       -0.09911221 -0.098785475 0.15276189 -0.07865558
000030 e7 82 ae 3e 87 dd ed 3b 04 08 80 3d c5 12 ec 3d
       0.34084246 0.007259074 0.06251529 0.115270175
000040 6c 6e ef bb 22 01 a3 bc 9e 2f 8b 3d ad 84 00 be
       -0.0073068645 -0.019898001 0.06796192 -0.12550612
000050 e9 d1 10 3e 8e 5c fd 3d 5b 42 d5 3d be 77 72 3e
       0.14142574 0.12371169 0.10413047 0.2367849
000060 58 98 fd 3c 33 c5 ca bd d2 5f d5 3d eb 38 e8 3d
       0.030956432 -0.09900894 0.10418667 0.11338981
000070 a6 41 8f 3d 38 23 a3 bd 14 fa bc bd fe c1 b5 bd
       0.06994943 -0.07965702 -0.09227386 -0.08874892
000080 32 27 cf 3a a2 24 a8 3c b3 94 1d bb 3b 45 c3 bd
       0.0015804528 0.02052528 -0.002404493 -0.09534689
000090 5f 0a 1a 3d ba 35 80 bc 48 d2 76 bc 39 9e 1b be
       0.037607547 -0.015650619 -0.015064783 -0.15197076
0000a0 10 a2 3e be a5 d7 ce bd d1 67 c3 bd 0f 78 f5 bc
       -0.1861651 -0.10099725 -0.09541286 -0.029964475
0000b0 0b 32 12 bb 73 60 4f 3d f1 22 3b 3e e6 fc be 3d
       -0.002230766 0.05062909 0.18275048 0.0932558
0000c0 dd 7a 6d 3d 11 a5 bd 3d fa 7e eb 3c b5 93 46 3e
       0.0579785 0.092599995 0.02874707 0.19392283
0000d0 f4 c6 ee 3d a8 d7 1d be 8c 2b ca 3b 00 f0 b7 3d
       0.11659041 -0.15414298 0.006169742 0.08981323
0000e0 eb 9f 2e be 6f ee 7b 3c 34 c3 98 3e e2 0a ba bc
       -0.17053191 0.015376671 0.29836428 -0.022710267
0000f0 59 55 41 be 29 9a 23 3e 57 40 b0 3d 28 94 24 bd
       -0.18880214 0.15976776 0.08606022 -0.040180355
000100 fb c8 3e be bb c4 08 3d 60 9d 40 b9 46 ce c1 bc
       -0.18631355 0.03339074 -0.00018369174 -0.02365793
000110 78 24 1d 3e 50 71 92 bd 5c fb 11 be c9 0c c1 3d
       0.15345943 -0.07150519 -0.14256042 0.09426267
000120 31 72 ec 3d 34 31 69 bd 24 35 37 bd 56 ad 82 bc
       0.11545218 -0.05693169 -0.044728413 -0.015951794
000130 9a 7f 12 be 46 18 20 bd a6 1e b4 bc ed 7d e2 3d
       -0.14306489 -0.03908565 -0.02198727 0.11059175
000140 7c 4c 0d bb 4b 11 d9 bd 16 ed fb 3b 14 a5 c2 bd
       -0.002156048 -0.105990015 0.007688175 -0.095041424
000150 b6 56 89 bc 37 ca 38 3d ac 09 b2 bc ce bc 50 bd
       -0.01676498 0.045114722 -0.021733128 -0.05096131
000160 30 3f a6 3d bc e7 02 3e be 68 90 bd 61 ef ae 3d
       0.08117521 0.12783712 -0.07051228 0.08541752
000170 aa f5 13 3e 31 ce 8c bd 20 94 56 3d 31 4d ee bd
       0.14449182 -0.068752654 0.052387357 -0.11635817
000180 b8 bd d1 bd 5f ca 5a 3e 76 a5 aa be 94 93 1b be
       -0.10241264 0.21366261 -0.33329362 -0.15193015
000190 22 62 3a 3e 20 98 5e bd c3 04 3d bd ac 3c da bd
       0.18201497 -0.054344296 -0.04614712 -0.106561035
0001a0 13 ae e2 3d 80 45 d6 3d ad ef 33 3e e6 78 c4 3d
       0.11068358 0.10462475 0.17571898 0.09593372
0001b0 1d 22 6c 3e 85 08 ac 3d 58 96 0e 3d ef 95 8c bd
       0.23059888 0.084000625 0.034811348 -0.06864535
0001c0 1e 55 96 bb 0e fb 81 bc 9d 8f 81 be 5b a7 67 be
       -0.0045877835 -0.015866783 -0.2530488 -0.22622435
0001d0 38 b2 55 3d 35 5d ce 3c da 5e 88 3d be 81 a2 bd
       0.052171916 0.025190929 0.066587165 -0.079349026
0001e0 2a 41 c1 3d 56 32 15 3e b3 4b 13 3e 8b 58 90 bd
       0.09436257 0.14569983 0.14384346 -0.07048138
0001f0 6a 8c c3 3d 1d 3a 43 bc de dc 2c be cf 70 e9 3d
       0.09548266 -0.011915711 -0.16881129 0.1139847
000200 4e 9d 8a 3b ae 9b 5c be 81 73 10 3e 93 79 55 3d
       0.004230178 -0.21543762 0.14106561 0.052117895
000210 e5 8e d5 3c 9d 1a 94 3d 5e d4 0d be e4 54 f6 bd
       0.026069114 0.072316386 -0.13850543 -0.1202791
000220 04 bf 2c be 79 04 4b 3d 10 db 3a 3d d0 92 1b bd
       -0.16869742 0.049564812 0.04561907 -0.03798181
000230 94 64 e2 bc cb 8a e6 3d 02 f8 98 bd ff bc fd 3c
       -0.02763585 0.112569414 -0.07469179 0.03097391
000240 4d ce a0 bd 4f ac 0c be bd ac 8e bc ad 55 1d be
       -0.07851849 -0.13737606 -0.017416352 -0.15364714
000250 a0 2e f1 bd 54 50 1d 3e 41 ca 86 3d 50 56 85 bd
       -0.11776471 0.15362674 0.065815456 -0.065106034
000260 3f c8 08 3d f7 14 22 be 3d 87 d3 bc 28 c1 ae 3d
       0.033394095 -0.1582831 -0.025821323 0.085329354
000270 27 f5 73 3d e3 cd dc 3c 09 e1 97 bd f5 91 bc bd
       0.059559967 0.026953643 -0.07415969 -0.092075266
000280 b9 86 86 bd 4d e3 57 3c 7a a2 60 3e b2 0b 35 3e
       -0.06568665 0.013176751 0.2193698 0.17680243
000290 f1 b8 9f bc b8 fa e9 bd 7a 0b 8c 3d 91 c1 9f 3d
       -0.019497367 -0.11424774 0.068381265 0.07800592
0002a0 1f dc 37 be 6f cd 2d 3e 2a 55 8b 3c 8f 32 11 be
       -0.17955063 0.16972898 0.017008383 -0.14179443
0002b0 d8 e5 e6 3d f6 30 9b 3e 6e cb 16 3d 0e a1 1c 3d
       0.11274308 0.30310792 0.0368151 0.03823953
0002c0 70 e6 83 bc 65 95 66 bd 54 f6 17 3d cd f2 1b bd
       -0.016101092 -0.056294817 0.03710015 -0.03807335
0002d0 20 54 9d 3c 5c 6f f3 3d 1b c4 a9 bb b9 c9 c3 3d
       0.019205153 0.118864745 -0.0051808483 0.0955996
0002e0 b0 6f 8f 3d f3 7e 61 3e ee 77 89 3b 26 eb 59 be
       0.070037246 0.22021084 0.004195205 -0.21281108
0002f0 25 b0 70 3e af ad f4 3d e6 1f ad 3d 5d b5 fb 3d
       0.23504694 0.1194719 0.0845335 0.12290452
000300 e9 c6 69 3e 74 50 52 3c 12 27 ed 3d ab 98 3e 3d
       0.22829784 0.012836564 0.11579718 0.046532314
000310 fa 91 b5 bd e8 14 01 3d 9e 8c 6a bd 59 7c 67 3c
       -0.088657334 0.03151408 -0.05726301 0.014128768
000320 31 3b 45 3b a7 90 3e 3e 0a 4d ed 3d 3c 0d 16 be
       0.0030095095 0.18609868 0.1158696 -0.14653486
000330 06 d2 09 be d2 64 de 3d d2 3b 3f be eb 2e 98 bb
       -0.13459024 0.10859074 -0.18675163 -0.004644265
000340 16 16 b0 3d 32 d3 a4 3c 24 7e 1a be 26 e4 41 3d
       0.085979626 0.020120237 -0.15087181 0.04733672
000350 89 cc 7b bd 5e 92 bb bd 3e 1d 6c 3d 4e df 42 3d
       -0.061474357 -0.09158777 0.057645075 0.04757624
000360 2b ef 89 3e 6f 16 24 3e e6 85 83 3d 51 a5 b0 3d
       0.26940283 0.16024183 0.064220235 0.086252816
000370 a4 b4 98 bd 14 fc 8e bd 5d 90 ac 3d b7 db 3d be
       -0.074563295 -0.06981674 0.084259726 -0.18540846
000380 0e 97 4e bd 0f 8c 74 3b 7d e0 0e 3d f9 5b 0b 3d
       -0.050437026 0.0037314927 0.034882057 0.03402326
000390 8c 27 c7 bd b8 5b b9 3d cf 4a b3 3d 16 cd 19 be
       -0.0972434 0.09050697 0.08754503 -0.1501964
0003a0 02 f2 83 3d 68 ed 86 3e c8 1f a8 3d 7f 73 24 bd
       0.06442644 0.26353002 0.08209187 -0.04014921
0003b0 3d ac 07 3e 77 77 50 3d e6 31 08 bd 4a 21 fe bd
       0.13249297 0.05089518 -0.03325071 -0.12408693
0003c0 a5 52 83 be 68 fb 4d bd 69 96 70 bd a5 f4 1b be
       -0.2564899 -0.050288588 -0.058737192 -0.15230043
0003d0 c0 b8 93 3d 3c a1 ac 3d e9 c2 bf 3d 0b 57 ca bb
       0.07212973 0.084291905 0.09363348 -0.006174927
0003e0 ac 47 93 be 92 08 ae 3d b5 d8 12 3d 47 75 ef bb
       -0.2876562 0.084977284 0.0358512 -0.0073076817
0003f0 f0 ee 92 3d 05 6e 5f be ee 08 8d bd 2b 32 0f 3e
       0.0717448 -0.21819313 -0.06886469 0.13983981

lstm_layer.weight_hh_l0_reverse f4 [200, 50]
000000 89 35 be 3d 26 9f 45 bd 2b 25 ef 3b 9b 87 63 3b
       0.09287555 -0.04824748 0.007298132 0.0034718278
000010 a1 ed 80 be a9 73 85 be 5a 69 07 be ec a1 84 bd
       -0.25181296 -0.26064804 -0.13223782 -0.06476197
000020 3e a4 b3 bd ec 34 5c 3d 67 f0 d5 bc 47 e2 1c 3e
       -0.08771561 0.053761408 -0.02611561 0.15320693
000030 cd 53 8e bd 4f 8d 3c 3d fa ea bb bd 62 59 bc 3d
       -0.069495775 0.0460332 -0.091756776 0.09196736
000040 c1 e7 8e bd 18 82 f0 bc f1 73 bd bd b7 67 37 bd
       -0.06977797 -0.029358909 -0.0925063 -0.044776645
000050 6d 6c 93 3d fa 94 f3 3d d3 e4 88 be 78 20 d5 3d
       0.07198415 0.118936494 -0.2673708 0.104065835
000060 c7 5b e5 3d 90 83 ba bd a9 bc 58 bc da 8f 17 3d
       0.11199146 -0.09107125 -0.013228574 0.037002422
000070 97 d6 53 bd d3 dc 2f bd 41 21 7f bd f1 23 35 3e
       -0.05171832 -0.042935204 -0.062287573 0.17689492
000080 2c 50 be 3d 36 e8 a7 3d c2 19 bd 3c ab 42 ea bd
       0.09292635 0.081985876 0.023083571 -0.11438497
000090 f7 de e5 bd bd 82 b9 3d e9 7d ef 3d 8c b7 18 3e
       -0.11224168 0.090581395 0.11693937 0.14913768
0000a0 a4 d9 2f 3e da 3f e1 3b 1f bd fb bc 69 56 a1 3d
       0.17172867 0.006874067 -0.030729828 0.078778096
0000b0 a8 a2 cc bd e1 3b 56 3d 60 82 1f be 96 a4 0e bd
       -0.09991962 0.0523032 -0.15577078 -0.03482493
0000c0 cb 79 dd bd 5f e9 e9 3d 66 cf d4 3d 42 2b 81 3d
       -0.10814246 0.11421465 0.103911206 0.06307079
0000d0 3e ef 0c be c7 39 54 bd fc e2 a9 3c 94 fa 14 3e
       -0.13763139 -0.051812913 0.020738117 0.14548713
0000e0 86 bc 83 3d 4f 03 11 bd 22 44 db 3d 81 c0 e5 3c
       0.06432442 -0.035403546 0.10706355 0.028045895
0000f0 e8 a3 ae 3d 43 54 cd 3c e7 9e 0a be ff de f9 bd
       0.085273564 0.025064593 -0.13537179 -0.12200736
000100 51 43 1f bd 93 12 aa bd af e7 c0 3d 5f df b9 bd
       -0.038882557 -0.08304324 0.0941919 -0.09075808
000110 00 69 2d be 84 06 37 bd 30 12 e9 bc 0b 42 8e be
       -0.16934586 -0.04468395 -0.028451055 -0.27784762
000120 75 6e 84 bc 69 d1 b5 3d bc 0c 9b 3d 43 ec 01 be
       -0.016165951 0.088778324 0.07570788 -0.12687783
000130 68 cd cd bd 0c f0 60 3d 0e 7c 11 be 52 c1 14 be
       -0.10048944 0.054916427 -0.1420748 -0.14526871
000140 ae ef 32 be 2e 36 1e be aa 7c 50 3e 5c 5e 4f 3e
       -0.17474243 -0.15450355 0.20360056 0.20250839
000150 4e d3 37 be c0 e4 ab bc d1 5b a0 bc 5b f4 06 3d
       -0.179517 -0.0209831 -0.019575031 0.03294788
000160 6e db a1 3b 6c 3d b2 bb fb 4b ef 3b 95 85 81 3d
       0.004939488 -0.005439451 0.0073027587 0.06324307
000170 6e a9 94 bd 06 13 c3 bd d8 a8 87 3d a7 cf 80 bc
       -0.07258879 -0.09525113 0.06624001 -0.015724016
000180 d5 72 46 be bb 23 7b 3d 82 38 82 3d c6 16 0e be
       -0.19379742 0.061313372 0.06358434 -0.13875875
000190 6d e2 4b 3e c4 3f c2 3d 12 c9 6a 3d 6b 19 2f 3e
       0.19910593 0.094848186 0.05732066 0.1709954
0001a0 bb d4 f9 3d f0 55 cb bd 18 1b 29 3b e3 28 29 3e
       0.12198778 -0.09928501 0.0025803503 0.16519503
0001b0 05 a2 77 bd 98 18 8b bd b6 95 c8 3d a3 5a 30 bd
       -0.06045725 -0.067918 0.0979418 -0.043055188
0001c0 7b 2e e3 bd 33 c4 80 3c a3 3b b2 bc a8 d1 04 be
       -0.1109285 0.015718555 -0.021756953 -0.12970603
0001d0 5c f0 d9 3c c0 4b 74 bd 3a 56 5e be 2a 50 e3 bd
       0.02660387 -0.059642553 -0.2171258 -0.110992745
0001e0 49 02 af bb 45 7c b7 3c dd 73 e5 3d 26 d4 00 bd
       -0.0053408486 0.022398124 0.1120374 -0.03145232
0001f0 df e8 25 bd d7 c2 92 bd 69 bc 00 3e 08 bd 04 bd
       -0.040505286 -0.07166069 0.12571873 -0.032406837
000200 4a b2 49 bd 64 71 87 3e f4 69 a7 bd 70 81 9d 3d
       -0.049242295 0.26453698 -0.08174506 0.07690704
000210 8e ee b6 3d 7f a3 6c 3d 7a a7 11 be 3b c5 9c bd
       0.089322194 0.05777311 -0.14224043 -0.07654806
000220 5f 72 53 3d 85 5a 82 3d ab a0 93 bd 6a 92 c3 be
       0.051622745 0.063649215 -0.07208379 -0.38197643
000230 6d 69 87 3d e6 29 01 be 0b 39 35 3d a9 68 c2 bd
       0.06611905 -0.12613639 0.044243854 -0.094926186
000240 ae fb 16 3e 49 c2 02 be 6b 1e b6 3d b8 0f 83 be
       0.14744446 -0.12769426 0.088925205 -0.2559793
000250 ff 7f 4b 3c 46 14 29 be 8e 71 1a 3e 9d f8 57 bd
       0.012420653 -0.1651164 0.1508238 -0.05272733
000260 9b e0 5c be 76 cd 67 3c 33 55 70 be ea 1f 81 bd
       -0.21570055 0.014148107 -0.23470001 -0.06304915
000270 13 77 a5 bd 67 f8 21 be 4b 11 44 3e ed 7f ab 3d
       -0.08079352 -0.15817414 0.19147222 0.08374009
000280 52 44 2d bc 19 3c c0 3d 0a 5a c2 3c 80 14 b4 3d
       -0.010575371 0.09386463 0.023724575 0.087929726
000290 a8 07 08 3c 84 e2 a1 3e 0e bb df bd 9a e4 88 bd
       0.008302607 0.3161813 -0.1092435 -0.06684227
0002a0 e0 08 15 be e0 84 18 be b8 3d 72 bd 7d f9 2f 3d
       -0.14554167 -0.14894438 -0.05914089 0.04296254
0002b0 02 cd c0 3d d9 69 53 3d 30 de 85 3e 4c f7 2a be
       0.09414102 0.051614616 0.26146078 -0.16695899
0002c0 45 de 77 bd 20 b7 01 3e 80 7f 93 3e 71 d0 8a 3d
       -0.060514707 0.12667513 0.28808212 0.06778038
0002d0 1b 87 66 3d c0 ac 09 3e df 89 09 3e da 5b 33 3e
       0.05628119 0.13444805 0.134315 0.17515507
0002e0 19 7a 33 3d b5 3f 83 3e c5 db ab 3d fe 4c 6b bd
       0.043817613 0.25634542 0.08391527 -0.057446472
0002f0 9c cd 79 3d c8 52 21 bd c4 c3 e2 3d 25 df 95 3e
       0.0609871 -0.039385587 0.110724956 0.29271808
000300 03 2e 0e 3e 77 52 b5 3c ae ef e7 bd 66 b1 a3 bc
       0.1388474 0.022134049 -0.11325012 -0.019982051
000310 a5 25 bf 3d 74 a8 4e 3e 9e 2c b7 3c 16 76 fa 3d
       0.09333352 0.20181447 0.022360142 0.12229554
000320 3c 67 b0 3d cf 71 4f bd 14 30 e8 bd f6 5d a8 bd
       0.086134404 -0.050645646 -0.11337295 -0.082210466
000330 fd 28 8d bd 52 d9 b5 3b 4a 10 d5 bd c1 88 87 bd
       -0.068925835 0.0055495882 -0.104034975 -0.066178806
000340 5f 6e 71 3e d8 5d 88 3e 77 9f 1d be db 1e 14 bd
       0.2357726 0.26634097 -0.15392862 -0.03616224
000350 73 33 2a 3d 64 fe 42 3d fc d1 7e bd 20 dd ae 3d
       0.041552972 0.047605887 -0.062211975 0.0853827
000360 8e e0 27 3e 23 89 fb 3c 88 79 d5 bd 1f f7 1f 3d
       0.16394255 0.03070504 -0.10423571 0.039054032
000370 b3 3c 39 3e d6 41 ab bc 7c 52 f4 3d 9a 40 2a be
       0.18089561 -0.020905416 0.11929795 -0.16626206
000380 b3 af 28 3e ae 0a 92 be fc 5e 80 3d b9 59 50 3e
       0.16473274 -0.28523773 0.06268117 0.20346726
000390 c2 9f 63 3e 12 b8 2d 3d a6 81 33 3c 1d 5d fd bc
       0.22228912 0.04241187 0.010956204 -0.030928189
0003a0 cc cd 77 3d c8 cc 8b 3e 7a fa a1 bd 30 99 94 3e
       0.060498998 0.27304673 -0.07909103 0.29023123
0003b0 33 f7 db 3d 71 e8 34 3e 67 7c 90 3d da 2f 73 bd
       0.10740509 0.17666794 0.07054978 -0.059371807
0003c0 77 82 f0 bd 96 4d 63 3e 43 7d ec ba d7 8d ae bc
       -0.11743634 0.22197565 -0.0018042702 -0.021307869
0003d0 40 b1 a3 bd 4b 67 04 bd f5 ef d5 bd c5 e7 02 3d
       -0.07992792 -0.03232507 -0.10446159 0.031959314
0003e0 e3 13 97 bd 3d 6d d3 3c 59 10 10 3c db 05 47 3d
       -0.0737684 0.025808925 0.00879296 0.04858957
0003f0 71 89 ff bc b3 76 41 3d 3d 4c 1b 3e 22 41 5a 3a
       -0.031193467 0.04723234 0.15165801 0.00083257456

lstm_layer.bias_ih_l0_reverse f4 [200]
000000 cf 72 9e 3d 54 d9 da bd 23 f7 c1 bd d6 0d b0 bd
       0.07736742 -0.10685983 -0.09470966 -0.08596389
000010 a2 4f 9b bd 68 de 0a bd c2 cc 2d bd d2 55 81 3d
       -0.07583548 -0.03390351 -0.0424316 0.06315197
000020 63 e1 fe bc 00 58 a7 3c 9e 85 62 3d 2e 4a 0c 3d
       -0.031113332 0.020427704 0.05530321 0.03425043
000030 a5 25 f9 bc 7c bf 1e 3d f1 aa 7d bd 03 76 ef bd
       -0.030413458 0.038756832 -0.0619306 -0.11692431
000040 a7 ab ac 3d e3 9e fc 3d 04 40 c3 bd 3a cf 3e be
       0.084311776 0.12334993 -0.095336944 -0.18633738
000050 b8 4d 99 3d 91 1c 31 3e f2 54 b1 bd 5e 8c ab bc
       0.07485527 0.17296053 -0.0865878 -0.020940956
000060 b0 e6 be 3c 9d d4 23 bd 59 05 a3 bd ab 2d 1a bd
       0.02330336 -0.039997686 -0.07960004 -0.03764121
000070 5e 17 0a 3e ff a7 6b bd 91 56 fb bd f5 0a 6b bd
       0.13485476 -0.05753326 -0.122723706 -0.057383496
000080 89 99 a1 3d 92 c6 4f bb 6e 99 05 be c9 7f 93 bd
       0.07890613 -0.003170405 -0.1304681 -0.072021075
000090 ec 99 04 3e 58 87 c5 3d f4 a7 22 be b2 a4 0d be
       0.12949342 0.096449554 -0.15884382 -0.13832358
0000a0 69 39 05 be 0b e6 d9 3b 52 cd 0e 3e 6d 97 43 3c
       -0.13010181 0.0066497377 0.13945511 0.011937958
0000b0 d1 8a 3d 3e da 54 bd bc 53 50 15 bd 94 3a 31 3e
       0.18509986 -0.02311175 -0.036453556 0.17307502
0000c0 0d 5d 44 bd 8d 18 29 bc 1c 05 50 3c c4 6d 6c bd
       -0.047940303 -0.010320795 0.012696531 -0.05772187
0000d0 3c 9a 8e 3c 73 70 3f 3e 94 d9 84 bd 99 ba c5 3d
       0.017407529 0.1869524 -0.06486812 0.09654731
0000e0 20 ee 46 3d ca 01 26 bd aa a0 b2 3d 94 cd 69 3d
       0.048566937 -0.04052905 0.087220505 0.05708082
0000f0 2b a7 bf bc c3 f0 91 bd 37 1d 86 bc 07 c9 96 3d
       -0.023395142 -0.07126 -0.016371353 0.07362562
000100 66 5e a4 3d a4 e3 28 b9 9e 75 1e 3e 89 f9 be bc
       0.080258176 -0.00016106531 0.15474555 -0.023312347
000110 35 23 68 bd 09 10 a5 3d 49 f6 6c bd d0 f3 c8 3c
       -0.0566742 0.08059699 -0.057852063 0.024530321
000120 58 3f 40 3d 2e c1 86 3c 93 3c 17 3e 67 9a 7e 3d
       0.04693541 0.016449537 0.14769201 0.06215897
000130 31 bd 5f bd f6 45 12 3a 24 f0 10 3e e5 de fc bb
       -0.054623786 0.0005579883 0.14154106 -0.007717001
000140 93 a9 af bd 34 50 08 bd 9c e7 e1 3d 06 9b 9b 3d
       -0.085772656 -0.033279613 0.11030504 0.07597928
000150 ff 6d 7b 3e 1c ee 28 3c e0 f7 28 bd 75 5d 50 bd
       0.24553679 0.010310676 -0.041252017 -0.050870378
000160 a6 8e ad 3d 2e b4 30 3e 11 19 90 bd 8e 93 01 3d
       0.08474474 0.17256233 -0.07036031 0.03163486
000170 e8 12 8f 3d 0b 51 6d 3e 7b 45 28 3d b3 09 2d 3e
       0.06986028 0.23175447 0.041081887 0.16898231
000180 d6 ce 0f 3e e8 db 02 3c 78 05 a7 3d a8 7d 95 bd
       0.14043745 0.007987 0.0815534 -0.07299358
000190 87 b3 c4 3d fd 10 9c bd 90 30 19 3e 02 03 c0 3d
       0.096045546 -0.07620428 0.14959931 0.09375574
0001a0 79 af 6c bd b2 83 00 be f3 d1 02 be b4 a1 e1 3d
       -0.05778453 -0.12550238 -0.12775402 0.110171705
0001b0 90 c4 1b 3d 78 b3 cd bd 70 2d 1d be 28 1d 0c 3e
       0.038029253 -0.100439966 -0.15349364 0.13682997
0001c0 93 9e 65 3d ec 43 01 be c7 ad 0d bd 3b a4 bc 3d
       0.05605943 -0.12623566 -0.034589555 0.09211012
0001d0 bc 62 05 bd 52 5f a0 3d 97 5e 21 be ce 12 ed bd
       -0.032564864 0.07830681 -0.1575874 -0.11575852
0001e0 5e df 2b bd b0 44 35 bd f6 79 02 3e 91 1a 99 3b
       -0.041961066 -0.04425496 0.12741837 0.0046723564
0001f0 f8 15 93 bd 04 fd db 3c 31 55 b2 bc 62 c1 83 3d
       -0.071819246 0.026854046 -0.021769138 0.06433369
000200 1e 23 74 3d b6 69 98 3d 21 0b d0 bd 29 41 0e be
       0.059603803 0.07442038 -0.10158373 -0.13892044
000210 04 5a 06 3d 0b 47 80 bc 45 3d 8d bd e8 ff f1 3d
       0.03280069 -0.015658876 -0.06896452 0.11816388
000220 de b3 37 3d bf a7 84 bd 68 92 e6 bd 0f f5 c9 bd
       0.04484927 -0.064773075 -0.112583935 -0.09861194
000230 52 8a d6 3c a3 37 a6 bd 45 28 5c 3d 3e 20 15 bc
       0.026189003 -0.081160806 0.05374934 -0.009101925
000240 57 5e e4 bd 6f c1 a7 bb ef ed ed bd 5c 62 0d be
       -0.111508064 -0.0051194946 -0.11617648 -0.13807052
000250 6e 44 a4 bc 09 e8 a9 3d c7 4c 3b 3d 08 49 2c 3e
       -0.020052161 0.0829621 0.045727517 0.16824734
000260 77 52 ab bc 4c b4 e7 3d 3f d2 3b 3d c7 14 fd 3d
       -0.020913346 0.11313686 0.045854803 0.123574786
000270 37 2c 8f 3d f5 be 8d 3d 94 35 cc bc 67 09 32 3d
       0.06990855 0.06921188 -0.024927892 0.043465998
000280 8d 3a 05 3e 4a 1e b8 bd e7 9e 97 3d 24 6c e4 3d
       0.13010617 -0.08990152 0.07403355 0.11153439
000290 01 d5 c8 3d d9 50 10 bd 84 65 ae 3d 23 ba 19 bd
       0.09806252 -0.035233352 0.08515456 -0.03753103
0002a0 48 98 f7 3d 42 38 9c 3d 30 1b 25 3d 73 a5 5b 3e
       0.12089592 0.07627918 0.04030913 0.21449833
0002b0 b7 a4 63 3e 4c 3e e8 3d dd f2 28 3d c2 8c a1 bd
       0.22230802 0.11340007 0.041247237 -0.078881755
0002c0 a1 4d 37 3e 3d 9f 8b 3d 06 78 d8 3d 88 68 71 bd
       0.17900707 0.06817482 0.10569768 -0.05893758
0002d0 f8 38 56 bc 73 51 ad 3e 42 95 d9 3d b7 5f 53 3e
       -0.013075106 0.33851203 0.10624172 0.20641981
0002e0 19 7c 1a 3e a3 52 c5 3c 7d 30 a1 3d 11 4b 04 3e
       0.15086402 0.024087256 0.078705765 0.1291926
0002f0 eb 70 e8 3d ac d4 0a 3e 6e 46 55 bd 0d bd c2 3d
       0.113496624 0.1355769 -0.05206912 0.09508715
000300 92 0e 3f 3e 89 ed 01 3e 29 3f ba 3d 8b 5f b9 3d
       0.18657902 0.12688269 0.09094078 0.090514265
000310 92 1a b4 3d e8 6f 6a 3e 1e 6d 4e 3e bb 0f 0e 3d
       0.087941304 0.22894251 0.20158812 0.03468297

lstm_layer.bias_hh_l0_reverse f4 [200]
000000 aa 5a 15 3d 26 33 0d bd 49 7b 09 3e 36 d9 6a 3d
       0.036463417 -0.034472607 0.13425936 0.057336055
000010 27 42 68 3d fc 9c bf 3d 96 9c 24 bb f9 35 ed 3a
       0.056703713 0.09356114 -0.0025117747 0.001809775
000020 17 ae 8d 3d ce 1c f5 3c ff 24 7f bd 74 d9 9b 3d
       0.06917971 0.029920962 -0.06229114 0.07609835
000030 e4 be b7 bd da ba bf bd 58 9a 95 3d b9 0d 38 3b
       -0.08971956 -0.09361811 0.07304829 0.0028084351
000040 52 1c b5 3d 6a 97 83 3d 88 49 a2 bb ab 85 20 bd
       0.08843292 0.06425364 -0.0049526133 -0.039189976
000050 a7 c5 33 3d c6 8a 18 3c a7 03 05 3d de 64 4d bd
       0.043889668 0.00931043 0.032474186 -0.050145023
000060 24 30 14 3d e2 a6 ab bd 09 80 31 3c b1 79 b0 bb
       0.036178723 -0.0838144 0.010833749 -0.0053856005
000070 a2 b7 35 3e d5 41 04 3e a1 78 19 3d fe a3 93 3d
       0.17745832 0.12915738 0.037468556 0.072090134
000080 ed 90 19 3e 1a 6f 6c bd 94 94 05 be 14 1d 51 3d
       0.14996691 -0.057723142 -0.1304496 0.05105312
000090 f4 a4 e7 3d 7f f3 a1 3d d1 e7 66 be b6 5f c6 3d
       0.11310759 0.07907771 -0.22549368 0.09686224
0000a0 6b af a9 bd 31 18 91 bd ba 0c c6 3d 76 4a b8 bc
       -0.082854114 -0.07084692 0.09670396 -0.022496443
0000b0 71 3c fd 3d bd 14 3e 3d 38 f7 90 bd ec 52 6d 3e
       0.12365044 0.046406496 -0.07078403 0.23176163
0000c0 e0 0a 65 be 23 9c 4b 3d ab 6a b4 3d 31 e3 85 3c
       -0.2236743 0.04970945 0.08809408 0.016343685
0000d0 0d 70 3b 3d b7 db 28 3e 5f 6a e4 3d 3e ea 44 3e
       0.045761157 0.16490065 0.11153101 0.19229981
0000e0 ca 58 fe bd 53 a3 f2 3d b9 55 e6 3d e6 ee 52 3e
       -0.12419279 0.11847558 0.11246819 0.20598945
0000f0 c9 a6 b4 3d 24 5e ce bd 5c 7b a6 3d 4b 18 8c bd
       0.08820874 -0.1007655 0.08128998 -0.06840571
000100 82 10 29 3d 68 57 74 bd d6 b2 84 3d f0 e0 d8 bd
       0.04127551 -0.05965367 0.06479423 -0.105897784
000110 6d 87 80 bc 04 8d be 3d 95 70 4c 3c 49 06 61 bd
       -0.015689576 0.0930424 0.0124780135 -0.054937635
000120 ad 3c da 3d 01 47 a4 bd d4 90 1f 3d 03 f4 e1 bd
       0.10656104 -0.080213554 0.03895648 -0.1103287
000130 b4 08 ec 3d 36 ff 6e ba 77 83 c2 bc ba d8 07 bd
       0.115250975 -0.0009117009 -0.023744328 -0.03316567
000140 24 f2 e1 bc a3 6c 70 3b 6b af f3 bc b2 f8 0a 3e
       -0.027581282 0.0036685846 -0.029746732 0.13571432
000150 9f 69 3e 3c 50 ff 14 3e d8 60 8f 3d 93 da ae 3c
       0.011621862 0.14550519 0.07000893 0.021344459
000160 54 90 31 3e b2 62 5c 3e 6a 45 77 bc db 26 fa 3d
       0.17340213 0.21522024 -0.015092233 0.12214442
000170 12 83 84 3d fd ea dd 3c f8 01 d7 3d 3a 24 aa bc
       0.06470312 0.02708959 0.104984224 -0.020769227
000180 f5 2c c5 bd eb ed 37 3e 2f e8 85 3e ed 52 46 3d
       -0.096277155 0.17961852 0.26153705 0.048418928
000190 75 c1 1e bd 48 dc d1 bd b2 19 4b bd 5a 3f 8d 3c
       -0.038758714 -0.102470934 -0.04958505 0.017242122
0001a0 27 fb be 3d e8 04 bf 3c 68 ec 9d 3d 3f 92 6c bd
       0.09325247 0.02331777 0.077111065 -0.05775666
0001b0 4f 7a a3 3c 19 64 21 bd e3 5f cf bc 5e 35 0a bd
       0.019955782 -0.0394021 -0.025314277 -0.0337423
0001c0 5e cc 11 3e 73 34 f0 bc ef ff 5a bc 30 fb 61 bd
       0.14238116 -0.029321885 -0.013366683 -0.05517119
0001d0 90 9d 21 be 52 72 9e 3b 97 72 94 bd 0a 41 18 3d
       -0.15782762 0.0048354054 -0.07248419 0.0371714
0001e0 d5 c8 6c bd 5d b8 3b bd b1 bb 24 bd e9 13 eb bb
       -0.057808716 -0.04583012 -0.04021806 -0.0071740043
0001f0 69 58 9d 3d c0 9c 30 bd fc c7 c4 3d 20 3b 91 3d
       0.076828785 -0.04311824 0.096084565 0.07091355
000200 4e d8 8f 3d de ca 83 3d e7 b1 c5 bd 60 47 8b 3d
       0.07023679 0.06435178 -0.09653073 0.06800723
000210 d4 1c 04 3d 6c 48 5d bc dc 8a 0c 3e fd ae 2d 3d
       0.032254055 -0.013506036 0.13724846 0.04240321
000220 b4 b4 e1 bc f2 06 c5 3d b3 45 38 3d c0 44 50 3b
       -0.027551986 0.09620465 0.044988345 0.003177926
000230 73 5f 1a 3d c9 18 26 3d 02 87 3c bc ea 59 5a 3d
       0.037688684 0.04055098 -0.011506798 0.053308405
000240 33 54 4c bd be 2d d5 bd 3a 27 4c 3d 55 0d 97 3d
       -0.049884986 -0.10409115 0.049842097 0.0737559
000250 c2 38 dd bd aa a6 ff 3d 09 6a 84 3d 30 39 75 3d
       -0.10801841 0.124829605 0.06465537 0.05986899
000260 e0 36 4e 3e 93 c2 26 3d 5d 3a 86 3e b1 2b 65 3e
       0.2013812 0.040712904 0.26216403 0.22379948
000270 b8 5a 88 3d 27 fc 91 3d b2 66 f6 bc 4b d4 68 3d
       0.06657928 0.07128172 -0.030078266 0.056843083
000280 b4 32 81 3d c3 db 8e 3d 42 23 81 bd 26 6a 31 3e
       0.06308499 0.0697551 -0.06305553 0.17325649
000290 0e 68 e5 39 1c f1 03 bd a9 c6 e2 3c f3 ff 25 3c
       0.0004375581 -0.03221236 0.02768262 0.010131824
0002a0 93 59 0b bc ed ed 3b 3b 6e 6a df 3d a5 b6 4b 3e
       -0.008505243 0.002867575 0.10908972 0.19893892
0002b0 02 0f 85 3e 2f 10 25 3d 1c 37 9f bb 31 1c cc 3d
       0.25988013 0.040298637 -0.0048588645 0.099663146
0002c0 ce bc 85 3e 22 3f 5f 3d 51 fb d7 3c 27 7b f8 bb
       0.2612061 0.054503568 0.026364954 -0.0075830403
0002d0 0e ff 05 3e e2 e7 2f 3e 8a d7 5f 3d 1a 5d 29 3e
       0.13085577 0.171783 0.054648913 0.16539422
0002e0 c3 e4 c3 3d 6c a0 01 3e 41 dd eb 3d 09 c8 97 3d
       0.09565117 0.12658852 0.1151681 0.074112006
0002f0 37 c0 01 3d 26 b3 53 3e e8 c3 10 3d ad 4c 17 3e
       0.03167745 0.20673808 0.03534308 0.14775343
000300 72 ef 8a bd a5 0b 8c 3e db 13 87 3e 5b 60 a5 3d
       -0.06783952 0.27352634 0.26382336 0.08075019
000310 e8 25 a0 bb 57 a9 de 3d 90 c9 8e 3e c7 de 15 3d
       -0.0048873313 0.10872143 0.27888155 0.03658941
